prune_resnet50_pruned_95_ckpt.pth (torch, 345537 bytes, 266 tensors)

conv1.weight f4 [9, 3, 7, 7]
00000000: 5696 8d3e 8247 253d 36c0 7ebe 763a 19bf
00000010: f62b 0dbf c5b2 fbbe e724 19bf 63f2 023f
00000020: e754 9c3e 326a 38be 7636 f5be bf86 dcbe
00000030: 4403 dfbe 00b6 e1be 1bc1 e33e c703 813e
00000040: 47f3 60be dea6 1fbf 9826 04bf 5fe7 e9be
00000050: c6a5 edbe 9b5c 083f a1c6 6d3e 75cf adbe
00000060: e7c8 1cbf f353 2ebf bfc2 13bf 1485 1ebf
00000070: 60fb 123f 9a7f a23e 5b08 7ebe b69a f3be
00000080: 7bc2 06bf 1842 edbe f5d6 f0be 551e d43e
00000090: 2966 833e c42b 21be aaaa 01bf 0875 ebbe
000000a0: 9171 b9be cdaa f8be 9d5a be3e 3d16 133e
000000b0: 2381 87be aff9 e1be 2084 c7be 65ef acbe
000000c0: 61ff c4be 2b0e 48ba c0c0 7b3e 147f 693e
000000d0: cbf3 61bd 2ff3 60bd e545 86bd 56cf a0bd
000000e0: d4e4 133c 997a 973e 3c01 6b3e 45c3 e73d
000000f0: e3b4 863d 1f56 aabd 365f 0dbe 6b2e 233c
00000100: 5a8a 593e 32fb 333d 979e 05be 5c26 00be
00000110: 339c 97be 27ad cfbe bea4 75bd 77a1 2b3e
00000120: 7f93 3fbc 6196 2cbe 4267 86be 318f acbe
00000130: ea55 a2be 9ed0 d33c 04bb 9d3e b1fa 223e
00000140: fa71 b9bd 4cea f43c bf28 dabd aa86 e4bd
00000150: 7789 a7bd e27e 473e b9e7 223e 6d5f 8abc
00000160: 4d65 32bd b41c 22be 9960 04be 69d1 1ebe
00000170: 346e 453e 1c59 7b3e 049d c63d 4028 9d3c
00000180: e275 9cbd 4a82 03bd 7a4e 50bc 8587 1d3e
00000190: 2ce4 483e a505 123e 80a2 f73d e646 94bd
000001a0: fdb4 133d cfb8 46bd 837d 7a3d ebaf 3d3e
000001b0: 66e3 173e 98d6 8e3d ab19 943d de31 673d
000001c0: 00c5 81be 9278 c2bd 670f 5a3e 30d5 eb3d
000001d0: dcfc cfbc d708 2cbd dc40 5abd c059 74be
000001e0: 006b 0abe bc9f c53d 5f02 f3bc 8af6 4b3d
000001f0: aee2 bcbc 1ecf d63d 82a9 cebe 5b75 d5bd
00000200: a5f5 1b3c b455 6c3d 749e 9fbd b414 66bd
00000210: e5c0 a43d a137 a3be a149 18be b79e a13d
00000220: 19bb 093d 8302 a3bc ff06 bbbd 987b bf3d
00000230: f53b 8ebe 1995 07be af9d 32bd d981 1cbd
00000240: 47bc 07be 96d4 4fbe 8b80 ebbd 0db3 59bd
00000250: 6b70 13be 2228 d4bd 0841 85bd deef 37bd
00000260: 7a19 3e3d 1c6b 16be 2484 c9be 90fe c9be
00000270: 20d9 7abe 30b1 a3be 1282 c0be 800c 84be
00000280: ea74 ffbe 6f11 aabe 4ebf cdbe 3b9c 0cbe
00000290: 4862 04be f6cf 6abb 2e3b 8b3d ebb5 f7bc
000002a0: f275 3dbe 5204 75be fa73 2ebe f4e0 f0bd
000002b0: 58be 233d 4529 4c3e d782 dfbc 0534 66be
000002c0: 0667 6bbe 2c79 cebd e942 7cbd cb5b 1d3d
000002d0: 2c41 013e 12a1 bbbd e9e4 2abe e3e7 44be
000002e0: c002 65bc 8ea6 9dbd 5c69 10bd d4a1 2a3e
000002f0: fcdf a9bd 9678 92bd f546 e3ba 7a12 6bbb
00000300: 3f8f 01bd af83 413e 5b04 443e 3a02 a63d
00000310: 8804 febc 1b4d f7bc ade4 9dbd 7bb0 5a3c
00000320: 8517 f83d 1c8c 093d e8df 463e 4bf2 0cbe
00000330: 334a 5ebe 60b7 05be 7a93 f9bd d5f4 273d
00000340: a505 d73c 54e3 a93e 64d3 8bbe 074e ddbe
00000350: 85ba adbe e4c3 11be da9d bcbc 0d46 1fbd
00000360: aa12 963e fb1d f4bc 8acd dcbd ea78 163d
00000370: 29b1 113d b157 3d3e 6c1a dbbb c1fb 4e3e
00000380: fad4 ecbd 9b51 e8bd c526 4dbc 566c 26bd
00000390: 1f1f 113d c604 b4bd 3848 0abb cdf3 32be
000003a0: 7be4 4abe fa7b 12be 2462 62bd 09b0 15bd
000003b0: aeea 46be 4ed7 c7bd 255d 34be 8fd1 68be
000003c0: d230 82bd a64d 1e3d 7d9d 623c bc3e dfbd
000003d0: febc 6fbd 88ab 083e 2bef c03e 4b43 353f
000003e0: 2334 723f 6308 813f 7ea4 3a3f 3b1c 5f3f
000003f0: fa5a 4c3e 7657 a23e 3a9d 043f 2054 393f
0.2765376 0.0403514 -0.2487801 -0.5985483 -0.55145204 -0.49159828 -0.59821934 0.511511
0.30533525 -0.1800926 -0.47893113 -0.43071553 -0.4355718 -0.44084167 0.44483265 0.25198194
-0.21967803 -0.62363994 -0.5162139 -0.45684335 -0.46415538 0.53266305 0.23220302 -0.3394734
-0.6124405 -0.68096846 -0.57719034 -0.6192181 0.5741482 0.31737977 -0.24807875 -0.47578973
-0.52640504 -0.46339488 -0.47039 0.41429392 0.2566388 -0.15739352 -0.5065104 -0.45987725
-0.36219457 -0.4856781 0.37178507 0.14363952 -0.2646571 -0.44135806 -0.3896799 -0.33776394
-0.3847609 -0.0007631506 0.24585247 0.22802383 -0.05516414 -0.054919418 -0.065563 -0.07852046
0.009026725 0.29585722 0.2294969 0.113165416 0.0657747 -0.083172075 -0.13805851 0.009959797
0.21244183 0.04394073 -0.13048778 -0.12514633 -0.29611358 -0.40561792 -0.059971564 0.16760813
-0.011692881 -0.1685424 -0.26250654 -0.33702996 -0.31706172 0.025856312 0.30806744 0.15915944
-0.090549424 0.029896878 -0.10652303 -0.11158498 -0.08180516 0.19481996 0.15908708 -0.016891206
-0.04355364 -0.15831262 -0.12927474 -0.15509571 0.1928032 0.24545711 0.09697917 0.019184232
-0.07639672 -0.032106675 -0.012714023 0.15383728 0.1961829 0.14259966 0.12091541 -0.07240085
0.036061276 -0.04851609 0.061154854 0.18524139 0.1483284 0.06974524 0.07231458 0.05644404
-0.25345612 -0.09495653 0.21294938 0.11515272 -0.025389127 -0.042000618 -0.05328451 -0.23862362
-0.1351738 0.096496075 -0.029664217 0.049795665 -0.023057308 0.10488723 -0.403637 -0.104227744
0.009519015 0.05769892 -0.077938944 -0.056172088 0.08044604 -0.3187838 -0.14871837 0.078916006
0.033625696 -0.019898659 -0.09132194 0.093497455 -0.2778012 -0.1324047 -0.04360741 -0.03820977
-0.13255416 -0.20295939 -0.11499127 -0.05314927 -0.14398353 -0.10359217 -0.06506544 -0.04490649
0.046411015 -0.14689296 -0.39358628 -0.39452028 -0.24496889 -0.3197112 -0.37599236 -0.25790787
-0.49893886 -0.33216426 -0.40185016 -0.13731472 -0.12928116 -0.003582952 0.06798397 -0.030238112
-0.18502024 -0.2392743 -0.17036429 -0.117616564 0.039976448 0.19937618 -0.027284069 -0.22480781
-0.22988519 -0.100817055 -0.061587248 0.03841762 0.12622517 -0.09161581 -0.16688885 -0.19229083
-0.013977706 -0.076977834 -0.03525673 0.16663295 -0.08294675 -0.07151906 -0.0017339872 -0.0035869167
-0.03163075 0.1889789 0.19142286 0.081058934 -0.03100802 -0.030188134 -0.07709632 0.01334774
0.12113861 0.033580884 0.19421351 -0.13764302 -0.21707992 -0.13058233 -0.12186332 0.041004974
0.026247809 0.3318125 -0.27309716 -0.43223593 -0.33931366 -0.14234883 -0.023024488 -0.038885165
0.29311115 -0.029799452 -0.10781391 0.036736406 0.035569344 0.18490483 -0.0066864993 0.20213224
-0.115640596 -0.1134369 -0.01252145 -0.04063066 0.03543007 -0.08789973 -0.0021100175 -0.17475815
-0.19813721 -0.14305106 -0.055269375 -0.036544833 -0.1942546 -0.09757863 -0.17613657 -0.2273619
-0.06356968 0.03864827 0.013831493 -0.109006375 -0.058529846 0.13346684 0.3768247 0.70805806
0.94610804 1.0080684 0.72907245 0.8715245 0.1995658 0.31707352 0.5180241 0.7239399

bn1.weight f4 [9]
00000000: 1f19 823f cb46 713f 9f87 9a3f e5f5 513f
00000010: e569 8c3f 9606 793f adde 933f 5fd4 6e3f
00000020: 7515 733f
1.0163916 0.94248646 1.2072638 0.8201583 1.0969816 0.97275674 1.155233 0.932928
0.94954616

bn1.bias f4 [9]
00000000: ac08 cfbd 9ce1 e9bd 3b2e cabd 26f8 e43d
00000010: 85a5 49be c2f0 e43d 1b00 a5bd 2eea 703e
00000020: 7119 e03b
-0.10109076 -0.11419985 -0.09872099 0.11180143 -0.19692047 0.111787334 -0.08056661 0.23526832
0.0068389704

bn1.running_mean f4 [9]
00000000: 061c 0541 777c 4b40 4717 9640 058d 8241
00000010: 7319 e040 49e7 573e ad07 0140 9225 f940
00000020: 7d12 4541
8.319342 3.1794717 4.6903415 16.318857 7.0031066 0.21084322 2.0160935 7.785836
12.317014

bn1.running_var f4 [9]
00000000: 48be 3342 ddc8 2542 615b 5c42 7e70 2c43
00000010: b62f fc41 dee6 1841 ba83 bd41 671c 5242
00000020: 6fbd da42
44.93582 41.446156 55.089237 172.43942 31.523296 9.556364 23.68932 52.527737
109.36999

layer1.0.conv1.weight f4 [9, 9, 1, 1]
00000000: 4b7e ca3d a192 6b3e 23c6 abbe e025 713e
00000010: 381e f03e d6eb b9bc afa5 acbe 38bb 9f3d
00000020: a6a9 a83e 6f3c 55be 1be7 b93e 939d a13e
00000030: 5d93 6dbe 0e51 08be 3253 973e 2043 6a3e
00000040: d42b bdbe 4113 39bd 88fd 00be 408e 0d3f
00000050: c19b 83be fbb0 fa3d c267 483e 293c 173e
00000060: 1af3 c0be 5cb6 493e ffbd ad3e 1531 c93e
00000070: d04a 233f d7ec 323e 69fc 60bd efc6 d0bd
00000080: 046f 773e efbd 663b ab5d 133e be5e 8d3e
00000090: 9cc8 f33b b25b 13bd 2473 3abf 57d3 b83d
000000a0: 7beb 813e 567e d73d be07 8ebe 45aa bf3d
000000b0: aab6 d53e 18c6 2fbd 1303 973e 97f6 e53c
000000c0: a5ef 47bf 3b0a dabe 99e4 003e a63f e2bd
000000d0: 5ab4 f1be 3ade 24be e61f f13e f1ea 0bba
000000e0: a7c4 bfbd cb95 953d 873c e73e a515 cebe
000000f0: d37a eebd dbde a3bd 30fe 8f3e 103a 8fbe
00000100: 9ee6 bd3e 9dac cdbe 1b84 8a3e 47ff 823e
00000110: b620 f93d e346 e7be 995b c53c 1717 6d3e
00000120: dbd1 9abe 0374 703d 8f34 cebe f010 9d3e
00000130: 1cf2 fb3e 11ce c43d 34c2 8ebe 9954 9c3e
00000140: 1718 813e
0.0988737 0.23005153 -0.33549604 0.23549604 0.46898055 -0.022695463 -0.33720157 0.07799381
0.3294193 -0.20823835 0.36309132 0.31565532 -0.23200746 -0.1331217 0.2955566 0.22877169
-0.369475 -0.045184378 -0.12596714 0.5529518 -0.25704768 0.122407876 0.1957083 0.14769043
-0.37685472 0.19698471 0.33934018 0.3929526 0.6378603 0.1747316 -0.054928217 -0.101941936
0.24163443 0.0035208424 0.143912 0.27611345 0.007439686 -0.03597612 -0.7283194 0.09024685
0.2537497 0.105221435 -0.27740282 0.09358648 0.41740924 -0.042913526 0.29494533 0.028071685
-0.78100044 -0.4258593 0.12587203 -0.11047296 -0.4720791 -0.16100398 0.4709465 -0.0005337438
-0.0936368 0.07303961 0.45163366 -0.40250888 -0.116445206 -0.08001491 0.28123617 -0.27973986
0.3709001 -0.40170756 0.27053913 0.25585386 0.12164442 -0.4517127 0.024091529 0.2315334
-0.30238232 0.058704387 -0.40274474 0.30676985 0.49208152 0.096096165 -0.2788254 0.30533293
0.25213692

layer1.0.bn1.weight f4 [9]
00000000: a354 713f 6fa6 843f 4332 ac3f 4c76 8d3f
00000010: 844a 863f eb94 683f 6d0c 783f fddd 863f
00000020: 2715 a53f
0.9426977 1.0363292 1.3452839 1.1051726 1.049149 0.9085223 0.9689396 1.0536495
1.289708

layer1.0.bn1.bias f4 [9]
00000000: 6dc3 f8bd 5688 ac3e 0088 dabd 82af c9bd
00000010: 0e36 a73c e53c 5e3e 160c 2abe ecd8 f1bd
00000020: 43eb ccbd
-0.121466495 0.33697766 -0.10670471 -0.098479286 0.020411517 0.21702917 -0.16606173 -0.11808953
-0.1000581

layer1.0.bn1.running_mean f4 [9]
00000000: ad16 693e 88b5 5a3e 5695 c13e ca9a 643f
00000010: 4977 06be 6071 34bf 36ac 193d ceb7 963c
00000020: 57a5 633e
0.22762556 0.21358311 0.37809247 0.8929869 -0.13131441 -0.70485497 0.03751775 0.018398192
0.22231041

layer1.0.bn1.running_var f4 [9]
00000000: 1968 9f3e 1673 8f3e 71a9 0b3f 19d4 8e3e
00000010: fdb9 ee3e 06c5 f83e 7b19 8a3e 676f 0f3f
00000020: 7303 693e
0.31134108 0.2801749 0.5455542 0.27896193 0.46626273 0.48587817 0.26972565 0.5602936
0.22755222

layer1.0.conv2.weight f4 [9, 9, 3, 3]
00000000: da02 893e 9f4d 67bd 7b92 a4be 5c25 bf3e
00000010: cd77 aa3d 18c4 dbbd 9ed1 b93e f0f2 323e
00000020: a6cc 903d 6eae 91be 77b5 493e e230 133e
00000030: afaa 47be 119c 153e 0a70 a63d e8b2 58be
00000040: 7e5f b2bc 501e c5bd f529 573e fc8e 0c3c
00000050: dac8 71be f80a 8c3e 0c19 f4bd 8a3c c5be
00000060: ddcd 2a3f 16c1 b73d a85a 17be db88 2fbe
00000070: 378d 583e fec6 ad3e 013d 7fbe 77af bf3d
00000080: 9c17 ee3d ec9a a5bd 2dcc 003e 90fb e03d
00000090: b896 823d c66f 78be f66a 24bd 31bd 2e3e
000000a0: 0ee3 61be 0204 c8bd fc52 0e3f 3699 b43c
000000b0: 5be0 873e 593e aebe e7e5 973c e59c af3e
000000c0: d0e5 87be 3162 5c3d 1b18 913e fd80 eabd
000000d0: a1a0 cc3d 5f67 453e 9367 b13e d401 21bb
000000e0: 01bd 71be 2b57 af3e 1864 693c c1e8 4cbe
000000f0: bc71 583e df23 153e 8960 6bbd 5e58 b93d
00000100: ceca 1bbd eb6f 53be ac42 253e d456 5dbe
00000110: edac babe edf1 193f 0983 9cbd 47b6 1dbe
00000120: ec76 b03e 5aa1 62be 0e7c 06bf e614 b73e
00000130: 94b0 9fbe 761b b5be 2977 223f ca40 3dbb
00000140: ff4f 963d a11d 9b3d 40a0 8b3e d000 953e
00000150: 3d27 81be 368e bebc 8407 1dbe 36e2 15bf
00000160: 50a1 96be 2ced 02bf d297 b0be 191b 74be
00000170: 40c4 02be ea2d a2bd f379 003e 873a e13e
00000180: cc86 9bbd f431 33bd 0d1c a63e a7d0 093e
00000190: af63 a53e 9c4b 523e 86aa 0cbe b046 4e3e
000001a0: fe16 553e 84cb 07bf 5c20 2ebe 060f f4bd
000001b0: 7b2e d8bd 98cd 7d3d 2e74 0d3e daea 693d
000001c0: 48f6 8b3e d795 163f 6390 18be db4b 843c
000001d0: 4302 2b3e e96b 6fbd 3702 233e 3bd7 663e
000001e0: a5cf 4abe 3f3e 4a3d 35db 5f3c 1d19 28bf
000001f0: 3a21 8dbe 8481 d4be b555 efbd 889d a23c
00000200: bd1d e13d ea8f a23c 932c 4e3e 2259 023f
00000210: 3453 a8bd cbc3 de3d f409 a73e 191c 483d
00000220: 1f40 eb3d 5808 5b3d cd94 83be 87ea 60be
00000230: e338 c3be 181f 92be 0c2c 85be e35d cdbe
00000240: cdb6 083d 86c9 ab3d 34a2 c53d 075b 1ebe
00000250: 0831 cc3d ec43 e73d 8aaf 08bf 2cdc 99be
00000260: f89c 71be 25da 103e e115 983e efe5 cd3d
00000270: 0cac 27be 6ac0 b3bb 556b a3be 00ac e3be
00000280: 403e 84be bab4 00bf 6965 a4be 2fd5 5dbe
00000290: fe29 e7be dd10 afbe 4716 3abe 07d6 cebe
000002a0: f46f aabe 7d36 d6bd d698 a3be 91fa 723e
000002b0: c9c2 b6bd 0b63 67be c71c 603e 7549 bd3d
000002c0: e9bb 4bbd 656b 973e d5ae b63e 0d41 903e
000002d0: 706a c3be 50f7 89be b93c bbbe f677 bebe
000002e0: 397c 0dbe c55c 92be 67cb e0be 6761 75bd
000002f0: 4490 cebd 7239 3abd 8d6f 62be 1dbc 28be
00000300: 5579 0a3d 12ef 933d 87d4 d4bd 12f4 493e
00000310: 2b2c 913e 8738 a83e ba8d 603d c8ef 08be
00000320: 96aa f7be 5906 69bd 470c 7ebb e774 86be
00000330: a633 be3c 040e 713d 4b6b d8bd dcf5 ad3e
00000340: 1277 f33c b31b 43bd fdbc 813d ac11 85bc
00000350: 43d1 39be 6f17 213e aff4 8c3d 0b84 82bc
00000360: 6479 913c d545 aebe 6857 52bf 9c19 f93d
00000370: 4308 80be f7fd 22bf 3181 c4bd b621 86be
00000380: aaeb 17bf 2260 ddbe 694a c7be be66 ecbe
00000390: 76ba 6ebe 34a8 0bbe 6b3f 90be 6945 79be
000003a0: 156b f2bd fb1e 09be 41d3 92be 7e57 62be
000003b0: b5da 9cbe 5dce a6be 8f1f 1dbc 3a29 7a3d
000003c0: 43d1 e4be 329c 1fbe cc36 9cbc 0f87 cb3d
000003d0: 8a98 0a3e 615a 56bd dea0 1bbd f2ea b7bc
000003e0: 100d 18be 6030 a0be 1366 23be c629 92be
000003f0: 24bd d93e 8af0 453e ea08 f93d 455a 91bd
0.26759988 -0.05647051 -0.32143006 0.3733319 0.083236314 -0.10730761 0.36292738 0.17475486
0.070702836 -0.28453392 0.1969813 0.14374116 -0.19498704 0.14610316 0.081268385 -0.21161997
-0.02177405 -0.09624922 0.21012099 0.008579012 -0.23611775 0.27352118 -0.1191884 -0.3852275
0.6672037 0.08972375 -0.14780676 -0.1714205 0.21147619 0.33940881 -0.24925615 0.09359639
0.11625597 -0.0808619 0.12577887 0.10985482 0.063764036 -0.24261388 -0.04014107 0.17064358
-0.2205927 -0.097663894 0.55595374 0.022045713 0.26538357 -0.34031942 0.018542243 0.3429939
-0.2654252 0.05380458 0.28338704 -0.11450384 0.09991575 0.19277714 0.34649333 -0.002456774
-0.23607256 0.3424619 0.014245056 -0.20010664 0.21137136 0.14564465 -0.05746511 0.09050058
-0.038035206 -0.20648162 0.16138715 -0.21615154 -0.36460057 0.60134774 -0.076421805 -0.15401565
0.3446573 -0.22131863 -0.5253304 0.35758132 -0.31189406 -0.35372514 0.63463074 -0.0028877729
0.07339477 0.07574011 0.272707 0.29102182 -0.2522525 -0.02326117 -0.15334898 -0.58548295
-0.29419947 -0.51143146 -0.3449083 -0.23838462 -0.12770176 -0.07918914 0.1254652 0.43989965
-0.0759407 -0.04374881 0.32443276 0.13458501 0.32302615 0.20536655 -0.13736925 0.20144153
0.20809552 -0.53044915 -0.17004532 -0.11916928 -0.105557404 0.061963648 0.1381385 0.057108738
0.27336335 0.5882239 -0.14898829 0.016149452 0.16700082 -0.05845252 0.15918814 0.22543041
-0.19805773 0.04937577 0.013663103 -0.6566332 -0.27564412 -0.41505063 -0.11686269 0.019850507
0.10992 0.019844014 0.20134191 0.50917256 -0.08218995 0.10877188 0.3262478 0.04885492
0.114868395 0.053474754 -0.25699463 -0.21964465 -0.3812934 -0.28539348 -0.26010168 -0.40110692
0.033377457 0.08388047 0.096500784 -0.15464412 0.099702895 0.11292252 -0.5339285 -0.3005079
-0.23595035 0.14145716 0.29704192 0.10053622 -0.16374224 -0.005485584 -0.31917825 -0.44467163
-0.25828743 -0.50275767 -0.3210862 -0.21663354 -0.45149225 -0.34192553 -0.1817256 -0.40397665
-0.33288538 -0.104596116 -0.31952542 0.23728396 -0.08923871 -0.22596376 0.21885978 0.092425264
-0.049739752 0.29574123 0.3568026 0.2817463 -0.38167143 -0.26946497 -0.36569765 -0.37200898
-0.13816918 -0.28586403 -0.43905184 -0.059907343 -0.1008611 -0.04546494 -0.22112866 -0.1647801
0.033807117 0.072233334 -0.10392099 0.19722012 0.2835401 0.32855627 0.05482266 -0.1337272
-0.48372334 -0.05689082 -0.0038764642 -0.26261064 0.023217987 0.058851257 -0.105673395 0.33976638
0.029719863 -0.047633838 0.06334875 -0.016243778 -0.18146233 0.15731595 0.06882607 -0.015932104
0.017758079 -0.34037653 -0.8216462 0.12163088 -0.25006303 -0.6366877 -0.09594954 -0.26197594
-0.5934397 -0.43237406 -0.38923958 -0.46172136 -0.23313317 -0.13638383 -0.28173384 -0.24342884
-0.118368305 -0.13390724 -0.286768 -0.22103688 -0.3063561 -0.32579318 -0.009590044 0.061074473
-0.44690904 -0.15586928 -0.019069098 0.0993787 0.13534752 -0.052332286 -0.03799521 -0.022450898
-0.14848733 -0.31286907 -0.15956907 -0.28547496 0.42527115 0.1933004 0.12159903 -0.07097296

layer1.0.bn2.weight f4 [9]
00000000: 316f 833f 2e22 933f 5d80 5e3f bd36 a93f
00000010: 734b 413f 59d4 0c3f 58df 323f ff50 9a3f
00000020: 060b 803f
1.0268308 1.1494806 0.86914617 1.321983 0.7550575 0.55011517 0.69872046 1.2055968
1.0003364

layer1.0.bn2.bias f4 [9]
00000000: 1edb 37be c024 303e 3e9a 063e ce44 0bbd
00000010: e47a d43c a4dc 86bd bdeb 173c 5277 5b3e
00000020: a606 ddbd
-0.1795468 0.17201519 0.13144776 -0.034001164 0.025937505 -0.065850526 0.009272513 0.21432236
-0.10792284

layer1.0.bn2.running_mean f4 [9]
00000000: 2d7c 843f d050 acbf 8739 92c0 1d10 74c0
00000010: f229 8fc0 5bdf 10c0 32fa 4ac0 f38a 32c0
00000020: 179b 233f
1.0350395 -1.3462162 -4.5695224 -3.8134835 -4.4738703 -2.2636325 -3.1715207 -2.7897308
0.63908523

layer1.0.bn2.running_var f4 [9]
00000000: b134 1f40 45a2 1541 ae42 da41 ec28 6a41
00000010: 818a b741 316c 0b41 4b8e fa40 d7b5 2541
00000020: 5112 6440
2.487591 9.352117 27.282558 14.634991 22.942629 8.713914 7.8298697 10.3568945
3.563618

layer1.0.conv3.weight f4 [11, 9, 1, 1]
00000000: b698 5e3d 2833 fdbe dbbf 3ebe 4f6c 5dbe
00000010: ba24 03be cc6d 2a3c 7532 473e c4b2 04bf
00000020: 5a77 8c3e 42af 9ebe c568 10be 392d 883e
00000030: 64e4 553f a5f5 e0bd b484 03be d607 503d
00000040: 9e5b dbbd 1da3 09bc ef5c 18be 2e13 87be
00000050: e48d abba a1f4 30bd a3df 0bbf ff1a a9be
00000060: 1d58 a73e ec02 2dbf cc45 3dbe b6bc bdbd
00000070: e7a3 eabe 732b febd cce5 b3be c8ec 29bf
00000080: 1709 70bb 1850 db3d f47a 0bbf 5cb7 15be
00000090: 022d 273f ddb4 25be a7c7 11bc 3af0 e8bd
000000a0: f371 da3d 8caa 693e a5d8 d5bc aaec 27be
000000b0: 064c 833e 469b 90bd f1ee 43bd ce08 55be
000000c0: cd6c 90be 68cc 5dbe 7af3 00bf 7b00 a6be
000000d0: 673a 1ebf a360 8ebe 22c5 9c3d 8802 9dbe
000000e0: 5db0 bbbb add4 88be c1b6 f5be 8871 0ebd
000000f0: a855 84bd 5ea5 4dbf 7ce9 c63d 2925 3c3e
00000100: 7d94 05bf ea45 9bbe ae85 0f3e b4d8 f5bd
00000110: e184 823d 4b78 203e 85d7 98be b8e3 8ebe
00000120: 15b9 8abe 5be7 68be bf44 c63b 8a49 303f
00000130: e3ab 8dbe 8a27 80be 8232 dc3e 3435 ad3d
00000140: b48c 10be 252e 25be 79c5 cb3d 0949 2cbe
00000150: 0c40 063f fe27 ed3d e65a 83be 967d 85be
00000160: 7e14 643e 18d0 b4be c030 32be 99fa 5fbd
00000170: 514d 643f 9402 673e 989c 153e 393d 233e
00000180: 2870 2d3e f8c6 583d 942e 4c3e
0.054344855 -0.49453092 -0.18627875 -0.21623348 -0.12806979 0.010402154 0.19452842 -0.51835275
0.27434808 -0.30993086 -0.14102466 0.26597002 0.8355162 -0.10984353 -0.12843591 0.050788723
-0.10710834 -0.008400706 -0.14879201 -0.2638182 -0.0013088551 -0.043202046 -0.5463812 -0.3302841
0.32684413 -0.67582583 -0.18483657 -0.092645094 -0.45828173 -0.12410631 -0.3513626 -0.66376925
-0.0036626512 0.10708636 -0.54484487 -0.14620727 0.6530305 -0.16182275 -0.0088976985 -0.113739446
0.10666265 0.22818965 -0.02610428 -0.16398874 0.2564394 -0.07060866 -0.047835294 -0.2080414
-0.28208008 -0.21660006 -0.50371516 -0.32422242 -0.61807865 -0.27808103 0.076547876 -0.30665994
-0.0057278113 -0.2672476 -0.47990993 -0.03477624 -0.0646165 -0.80330455 0.09712502 0.1837355
-0.521797 -0.30326778 0.14015839 -0.120042235 0.06373001 0.15670888 -0.29851928 -0.2790811
-0.2709433 -0.22744505 0.0060506756 0.6886221 -0.27670202 -0.25030166 0.43007284 0.08457413
-0.14116174 -0.16130884 0.09949774 -0.16824736 0.5244148 0.115798935 -0.25655288 -0.26072377
0.22273442 -0.35315013 -0.17401409 -0.054682348 0.89180475 0.22559577 0.14610517 0.15941323
0.16937315 0.052924126 0.19939643

layer1.0.bn3.weight f4 [11]
00000000: 82cc 5a3f 6ae4 623f 487e 523f 9d61 7d3f
00000010: 6d82 b43f ed9f 5b3f 376a 803f 236e 5f3f
00000020: 2fec 783f f71a 903f 6be6 503f
0.85468304 0.8862978 0.8222394 0.9897707 1.4102303 0.857909 1.0032414 0.8727743
0.9723539 1.1258229 0.8160159

layer1.0.bn3.bias f4 [11]
00000000: 4b25 183e dff5 41be fdfc fabd 6504 09bd
00000010: a8dc c33d 9361 923d 8dce 693e fc07 06bc
00000020: 5e47 21be c2a0 0dbe 4919 a6bc
0.14857976 -0.18941449 -0.12255285 -0.033451457 0.09563571 0.07147517 0.22832699 -0.008180615
-0.1574988 -0.13830855 -0.020275729

layer1.0.bn3.running_mean f4 [11]
00000000: 351f 33bf 6960 9d3e efe9 5dbf fef4 91bf
00000010: adb5 ca3d 3174 89bf 043c 7bbf 31dc 0ebf
00000020: 330a 3b3e 9949 263e 175d 313f
-0.69969493 0.30737618 -0.8668508 -1.1402891 0.09897933 -1.0738584 -0.9813845 -0.55804735
0.1826561 0.16239013 0.6928267

layer1.0.bn3.running_var f4 [11]
00000000: 2f6e d13e 74cc dc3e d379 6e3e eeb6 fd3e
00000010: 320e e53e cfe7 ed3e 091a 1d3f bde8 5b3e
00000020: 8816 d83e 63f7 a23e 41fe de3e
0.40904376 0.43124735 0.2328866 0.49553627 0.44737393 0.46465918 0.6136785 0.21475501
0.4220469 0.31829366 0.43553355

layer1.0.conv_id.weight f4 [11, 9, 1, 1]
00000000: 3f47 24bc e3cc 1c3e 7d26 2fbf 3e70 98be
00000010: 3ef0 873e ac41 883e 81f2 a4be 4961 96be
00000020: c358 b03c 3b8a 0dbe dbc9 273c 65bf 113f
00000030: 56ba 4a3e 8d7c c23d dbc4 71be e294 423f
00000040: 8475 193e 0f77 18be f0b9 38be 1c02 25be
00000050: 946e 7a3e 9dd1 433d a154 21be 7a7e b8be
00000060: efe9 023f 62c9 c63e 1014 c9be 9519 1ebf
00000070: 438f 49be a46c 2c3d cd11 d53d f2d9 cfbe
00000080: 0285 523c 58cf c43e 2e89 a1bd db8d 1bbf
00000090: 0d6d 7a3e 8496 bbbc 2506 17bf 3271 d9be
000000a0: d4d1 2c3e 543f 56bc c074 02bf 1434 06bf
000000b0: cfa5 b4bd 9ae5 0a3f b005 eabd e3ed bfbe
000000c0: 7104 a0be 7ace e93e dcad a83d d4fc d6bd
000000d0: b8cc febe 6256 0dbc 1af8 f8be 28ff 4d3e
000000e0: 1731 333b 7b66 eabe 9bda e1be 90a3 ea3d
000000f0: 3fc3 b23e a193 0bbe cafe 01bf 388b 0d3f
00000100: 19e7 f43c b293 7bbe 74a9 a03c 5273 703f
00000110: 2dc2 183d 9688 00be 34cb fcbd 6337 b63e
00000120: d639 92be e804 d9bd d224 063f adb1 2a3e
00000130: b606 603c 29c1 9cbd 5785 003f 5713 023f
00000140: f281 7cbe b3a3 7a3e 94c0 a7be 70a8 d9be
00000150: 72cc 773d 868f aa3e 3213 0dbe eb98 0abf
00000160: 9607 6bbe 3d78 233e b421 26bf de8c 783d
00000170: 9d29 d1bd f385 36be 8422 a9be fee4 7a3e
00000180: 1f63 5c3e f4f1 7fbd 3884 d0be
-0.010026752 0.15312533 -0.68418103 -0.29773134 0.26550478 0.26612604 -0.32216266 -0.29371098
0.0215267 -0.13822262 0.010240997 0.5693267 0.19797644 0.094964124 -0.2361025 0.7600843
0.14986235 -0.14889167 -0.1803968 -0.16114086 0.24456245 0.047807325 -0.1575494 -0.36033994
0.51138204 0.38825518 -0.3927312 -0.61757785 -0.19683556 0.042095795 0.10403786 -0.40595967
0.012849094 0.3843944 -0.07887493 -0.6076333 0.24455662 -0.02289892 -0.5899375 -0.42469174
0.16876918 -0.013076622 -0.50959396 -0.52423215 -0.08820688 0.54256594 -0.11426866 -0.3748618
-0.3125339 0.45665342 0.08236286 -0.10497442 -0.49765563 -0.008626552 -0.48626786 0.20116866
0.0027342492 -0.4578131 -0.44112095 0.11456978 0.34914586 -0.13630535 -0.507794 0.55290556
0.029895352 -0.2456806 0.019612052 0.93925965 0.037294555 -0.12552103 -0.123434454 0.35589132
-0.2855975 -0.10596639 0.52399933 0.1666934 0.013673475 -0.0765403 0.5020346 0.5081076
-0.24658945 0.24476509 -0.32764113 -0.4251132 0.06049771 0.33312625 -0.13776854 -0.54139584
-0.22952113 0.15963836 -0.64895177 0.060681216 -0.10213015 -0.17824535 -0.33034146 0.24501416
0.21522187 -0.062486604 -0.40725875

layer1.0.bn_id.weight f4 [11]
00000000: f580 943f 94ba 853f b563 8d3f ba9f 803f
00000010: 3a78 8d3f 30ec 973f 7ecd 9f3f 62db 9c3f
00000020: 1862 973f 5f13 893f 8c12 973f
1.1601855 1.0447564 1.1046053 1.0048745 1.1052315 1.1868954 1.2484586 1.225445
1.1826811 1.0709037 1.1802535

layer1.0.bn_id.bias f4 [11]
00000000: 4b25 183e dff5 41be fdfc fabd 6504 09bd
00000010: a8dc c33d 9361 923d 8dce 693e fc07 06bc
00000020: 5e47 21be c2a0 0dbe 4919 a6bc
0.14857976 -0.18941449 -0.12255285 -0.033451457 0.09563571 0.07147517 0.22832699 -0.008180615
-0.1574988 -0.13830855 -0.020275729

layer1.0.bn_id.running_mean f4 [11]
00000000: e35b 03bf b0bd 303f cea8 793d 3365 fcbe
00000010: 605b 86bf b82f b5be df04 f2be 27b0 f03e
00000020: 4bf1 273f 69a4 25bf 46c6 c6be
-0.51312083 0.6903944 0.060952 -0.4929596 -1.0496635 -0.3538797 -0.4726934 0.47009394
0.6560256 -0.64703995 -0.38823146

layer1.0.bn_id.running_var f4 [11]
00000000: cbe6 5c3f 43ac 7c3f 9c81 563f f627 9b3e
00000010: 4cd8 1b3f 7b68 3a3e 5249 8a3e e7a2 493e
00000020: 1b0d 453f d935 783e d45e 813e
0.8628966 0.9870035 0.8379152 0.30303925 0.6087692 0.18203919 0.27009064 0.19691049
0.7697312 0.24239291 0.2526766

layer1.1.conv1.weight f4 [9, 11, 1, 1]
00000000: 518d b73e 5667 0a3f 4fcb 4a3f 1bcc 093f
00000010: fe7b 9cbe 9a80 19bd c77e 563e 817b f53d
00000020: dfee e53e 3c71 4a3e fe21 833e f45d 083f
00000030: 2d50 0c3f 24b4 013f 900b c73e 4d30 893e
00000040: 6f58 e83d a4f1 a33e 4d13 243e 0673 af3e
00000050: f1ff 81be 7725 913e dd08 83bd cd80 a53d
00000060: 3557 923e 29fe aa3e bba6 23be e21b 03be
00000070: 876d e23d 8905 5bbe d53f e93e 4a9b f03d
00000080: 5c9b 1fbd 53dc c23e 641d 013e f85f 843e
00000090: 2905 a13d 3ae6 393f bf94 d93e 2196 4a3e
000000a0: 16d5 833e cdf1 2a3e 2f3e 8a3e 0865 c43d
000000b0: 745b a2be 0e42 6bbd b40e 39be 2d33 4dbb
000000c0: e978 5cbe 96c6 b3be 4506 b8be 2077 c4be
000000d0: aacd 10be c7f0 92bb 8973 e3bd 144d 5bbe
000000e0: c281 373d 56d6 05be 8f06 9b3d 1fa3 aebe
000000f0: f203 28bf 8d40 92be de96 e5be 413b c93c
00000100: 7a00 1cbe 94f6 37be c745 b0be f21d bfbd
00000110: 50c9 cbbe fa00 413d e13d 8abe 2e2f 2ebf
00000120: 7c38 58be bf80 e1be 8fc4 28be 63d2 82be
00000130: 1841 54be 2b70 623e 37c7 d23e ba79 113e
00000140: edc9 9e3e 003b f03e 54b8 b43e 7256 3a3e
00000150: c785 0d3f 97bc de3e 7b80 b5be 55b1 bb3e
00000160: cfaa ae3e 9b3d dd3e ca6a 023f c7e0 003f
00000170: d9ef cebd 6cd8 a7bd d2cf e43e 98c6 9a3d
00000180: a32b b43e 3627 65bd e3ff 253f
0.35850003 0.5406393 0.79216474 0.53827065 -0.3056335 -0.03747616 0.20946799 0.11986447
0.44908807 0.19769758 0.2561187 0.5326836 0.5480984 0.506655 0.3887601 0.26794663
0.11344992 0.32020295 0.16022988 0.34267443 -0.2539058 0.28348896 -0.06398175 0.080812074
0.2858216 0.33397034 -0.15981571 -0.12803605 0.11056047 -0.2138883 0.45556512 0.11748369
-0.03896652 0.3805872 0.12608868 0.25854468 0.07862312 0.7261692 0.42496297 0.19783832
0.2574851 0.16693802 0.27000567 0.09589583 -0.31710398 -0.05743604 -0.18072015 -0.003131102
-0.21530499 -0.35112447 -0.35942283 -0.38372135 -0.14140955 -0.0044842693 -0.11106021 -0.21416122
0.04480148 -0.13070044 0.0756961 -0.34108827 -0.6563102 -0.28564873 -0.44841665 0.024564387
-0.15234557 -0.17965156 -0.34428236 -0.093318835 -0.39802027 0.047120072 -0.27000335 -0.6804074
-0.21115297 -0.44043538 -0.16481231 -0.25551137 -0.20727956 0.22113101 0.41167614 0.14206591
0.31013432 0.46920013 0.3529688 0.18197039 0.55282253 0.43503258 -0.35449585 0.3665873
0.34114692 0.43211064 0.509442 0.50342983 -0.10104341 -0.08195576 0.44689804 0.0755741
0.35189542 -0.055945598 0.6484358

layer1.1.bn1.weight f4 [9]
00000000: d7d6 923f 2dc0 823f d2b5 7a3f faef b63f
00000010: 77e8 463f 55a1 4a3f 3125 683f d858 b33f
00000020: 11d8 6d3f
1.1471814 1.0214897 0.97933686 1.4291985 0.77698463 0.79152423 0.9068175 1.4011488
0.92907816

layer1.1.bn1.bias f4 [9]
00000000: 5d5e ccbc 0f99 403e 191c dd3d f708 e5bd
00000010: fa4a edbd 103a e93d c967 393c 8c3c 343e
00000020: ceea b93d
-0.02494734 0.18808387 0.10796375 -0.111833505 -0.11586566 0.11388028 0.011316248 0.17601222
0.090779886

layer1.1.bn1.running_mean f4 [9]
00000000: 61e4 c13f 5671 0d40 6285 1b3e 95a5 0f40
00000010: 8b81 d8bf 7b4c ebbf 9e78 0dc0 8a28 1a40
00000020: b0ba e23f
1.5147821 2.2100425 0.151876 2.2444813 -1.6914533 -1.8382715 -2.210487 2.4087243
1.7713223

layer1.1.bn1.running_var f4 [9]
00000000: 77cd 9f3f 2538 e03f eb7a 6f3f 3ebf 5040
00000010: 286c c93f 5af7 3940 c9b3 0e40 72fb d83f
00000020: c71d 0140
1.2484578 1.7517134 0.9354693 3.2616725 1.5736132 2.9057221 2.2297232 1.6951735
2.0174425

layer1.1.conv2.weight f4 [9, 9, 3, 3]
00000000: dbdf 643d a771 95be f936 36be 4a04 ad3e
00000010: bf5b f83c 8215 043e 3fe6 563e 8e30 cebe
00000020: 1ce6 60bd 8f30 f93d c16b 1dbe e51d e8be
00000030: 314b f43e 9562 7b3d 0d34 fdbd 1130 d63e
00000040: a947 32be db3b a1bd 0097 adbd 546b 6e3d
00000050: 6bd7 213e 2a31 2d3e 65e1 a53d 2312 a63e
00000060: c626 85bd e973 38be 35a1 683e 27a1 5c3e
00000070: 9399 643d 8723 fcbe ac4d 973e 3025 1e3e
00000080: a4ec d4be edd7 fd3e b35e 9f3d 5521 81be
00000090: 56bf f5bd 18c4 273e b911 ef3d 28bf c4be
000000a0: 4351 833c 7b45 76bc b65d cdbd 7290 173e
000000b0: 7d0b 2c3e 80f7 c13d 78ea e63d b659 e03e
000000c0: 8a53 25be 0da0 27be b337 863e d6b0 23be
000000d0: 2b00 8e3c 9b2d b03e 585c 5f3e deaf 1a3e
000000e0: 8f03 d93e 1730 6ebe 1252 4cbe dfbe d43d
000000f0: f06f 84bd dc75 673d 6204 b83e 3858 433e
00000100: 9fcf dabd 5e90 35bf aeb9 ae3e 2b8e c13c
00000110: f168 d9be 5a5c dd3e cc18 99bc 0f0e a2be
00000120: 5b7b aabb 7f2c 61be 78ad 54be d6c6 7c3e
00000130: 0327 04bb 338b 173c e3cf 243e 6448 76be
00000140: 9dfa 633c e86c fbbd 4568 a1be e16c 69be
00000150: 024f 213e 4507 123d 0cc8 b3bd e669 803e
00000160: 0c58 9fbe d07a 0cbe 9f4a 57be f6bc 88be
00000170: 06f0 1dbf 4b87 24bd 3c97 4cbe f4a1 f1be
00000180: d971 263e 96bb 72be 517b 96be 13ad 33be
00000190: 69ea 18bd 1f58 9e3d 2e6a 05ba 2770 1cbd
000001a0: 47de 363d 6778 ebbc c2f3 32be 1658 ac3d
000001b0: 3f3b 143e e33d bb3d d681 debe a991 1e3e
000001c0: b580 243e 758c 02bf d425 6c3e b638 c43c
000001d0: 9876 d5be 9215 83bc 88ce 8d3e 2838 5f3e
000001e0: 199c 85be 91a7 1e3e a543 1f3e ccbe 12bd
000001f0: 22b6 363e a896 4c3e fe3a 3b3e 81a0 093e
00000200: 4ac0 b03e 2401 d13d f2b3 2cbd 17e4 7e3e
00000210: 9db2 36bd 789f f93d e913 b93e 915d a33e
00000220: bdcc 693e 8a2b e63e 4fa0 3c3b 6993 06bd
00000230: 2f70 763e f2bf 95bd 75de 173e b26e b63e
00000240: 77c2 6dbc 45e5 27be 4958 27bf 6f68 cbbb
00000250: af63 77bd fe2a 08bf 5226 5b3e 7131 70bb
00000260: 3a10 9cbe 9b27 3bbe 9781 c9be 5ec8 f7be
00000270: a018 ca3d fcbe 08be 77db a0be 9140 443e
00000280: 40f1 7bbe 31d9 d3bd e92b 183e fb75 793d
00000290: b354 2dbd 6866 0c3f fb89 963e d7f6 b03e
000002a0: 90a9 923e bd0e 68bd 64bb c23d b79c 813d
000002b0: 091a 1bbd ecc0 9abe 0daa 963e 8c50 f63d
000002c0: 4aac 083e da09 d33e 7836 6abd 29fc 2d3d
000002d0: 66b6 b9bc 6996 a1bc 89a8 033c bbb9 063e
000002e0: 1ad5 b13d c759 9a3e b218 38be 52a3 46be
000002f0: 6c0e ca3d a918 8e3e 67d3 003c 3da7 98be
00000300: ce72 093f 36fd 673e 4eea 25bc 0f2d 233f
00000310: 78cd a63d c340 30bd 9ddf 2fbe e449 7ebd
00000320: dd9a 7fbc 00ea d4be ca6c a9be 1b1b 44be
00000330: d97e 80be 21a9 4abc f72d 073e c39f 55be
00000340: 282e d0bc d88a 9c3e ba39 70be 13d8 cbbd
00000350: 8d92 a23e bd86 b0be a598 1dbe 8b18 9b3e
00000360: cd34 3c3d 93db a3bc d6cb 833e 523e 8dbe
00000370: 633d afbe f240 773d 6c0b 9abe b15c 4abe
00000380: d293 793e 1401 3c3e 7af3 dcbc f04e 15bf
00000390: adcc 003f 3673 263e 11ca bbbd 3565 1c3f
000003a0: 1a29 b73c 6e98 08be e3af b83d d330 d13d
000003b0: 604f 31bc 7de0 d33e 9a66 9a3e 5bb1 833e
000003c0: b2fa 8d3e 9148 67bc b4ec 273e 3726 253d
000003d0: 948c 59be 0da5 86be 808b d03e 490e 623e
000003e0: ac39 503e 2601 583e 26f2 60be 63fc 643d
000003f0: b11f c53d 67dc c0bd b1a2 2abf dd53 ab3e
0.055877548 -0.29188272 -0.17794408 0.33792335 0.030317185 0.1289883 0.2098627 -0.4027142
-0.05490695 0.12167465 -0.15373136 -0.45335308 0.47713616 0.061373312 -0.123634435 0.41833547
-0.17410149 -0.07872745 -0.084760666 0.058207825 0.15804832 0.16913286 0.08099631 0.32435712
-0.06501536 -0.18012966 0.22717746 0.2154585 0.055810522 -0.49245855 0.29551446 0.15443873
-0.41586792 0.495788 0.07781734 -0.25220743 -0.11999385 0.16383398 0.11673302 -0.3842709
0.01602996 -0.015031214 -0.100276396 0.14801195 0.16801257 0.09471035 0.1127519 0.43818444
-0.16145149 -0.16369648 0.2621437 -0.15985426 0.017334064 0.34409794 0.2181257 0.1510615
0.42385527 -0.23260532 -0.19953182 0.10387968 -0.06466663 0.056508884 0.35940844 0.19076622
-0.10684132 -0.7092341 0.34126037 0.023627361 -0.42462876 0.4323452 -0.018688582 -0.3165135
-0.0052026934 -0.2198963 -0.20769298 0.24685225 -0.0020164854 0.009249496 0.16094927 -0.24051052
0.013914731 -0.122766316 -0.31524864 -0.2279544 0.15752795 0.035651464 -0.0877839 0.25080794
-0.31121862 -0.13718724 -0.2102456 -0.26706666 -0.6169437 -0.040168088 -0.19979566 -0.47193873
0.16254367 -0.23704371 -0.29390958 -0.17546491 -0.037332926 0.077316515 -0.00050893694 -0.038192894
0.044645574 -0.028743936 -0.17475799 0.084152386 0.14475726 0.09142663 -0.43458432 0.15485252
0.16064723 -0.5099557 0.23061305 0.023952823 -0.41692042 -0.016001496 0.27696633 0.21798766
-0.26095656 0.15493609 0.15553148 -0.03582649 0.17842916 0.19979346 0.18284222 0.13440134
0.34521705 0.10205296 -0.042163797 0.24891697 -0.044603933 0.121886194 0.36148003 0.31907323
0.22832008 0.44955093 0.0028782075 -0.032855425 0.24066232 -0.07312001 0.14830954 0.3563133
-0.014511696 -0.16396053 -0.6536909 -0.006207518 -0.0603978 -0.531906 0.21401337 -0.0036650563
-0.3048113 -0.18276827 -0.39356682 -0.48395056 0.09867978 -0.13354105 -0.31417438 0.19165255
-0.24603748 -0.1034416 0.148605 0.06090353 -0.042317104 0.5484376 0.29402146 0.34563324
0.2864499 -0.05665468 0.09508398 0.06328719 -0.037866626 -0.30225313 0.29426613 0.12027082
0.13346973 0.41218454 -0.05718085 0.042476807 -0.022669982 -0.019725041 0.008035787 0.13156788
0.08683224 0.3014662 -0.1797817 -0.1939824 0.09866032 0.2775319 0.007862902 -0.29815093
0.53690803 0.22655186 -0.010126663 0.6374063 0.08144659 -0.04303051 -0.17175145 -0.062082186
-0.015600887 -0.41584778 -0.33090812 -0.19150965 -0.25096777 -0.012369425 0.13201128 -0.20861726
-0.025412634 0.3057468 -0.23459521 -0.09953322 0.31752434 -0.34477797 -0.1539026 0.30292162
0.045948792 -0.020002162 0.25741452 -0.2758661 -0.34226522 0.06036467 -0.3008684 -0.19761921
0.24372795 0.18359786 -0.026971567 -0.58323574 0.5031231 0.16254887 -0.091694005 0.6109193
0.022358466 -0.13339397 0.09017923 0.102143906 -0.010822147 0.41382208 0.30156404 0.2572125
0.27730328 -0.014116422 0.16398889 0.040319648 -0.21245033 -0.262978 0.4073143 0.22075762
0.203345 0.21094188 -0.21967372 0.055904757 0.09625185 -0.094170384 -0.666545 0.3346242

layer1.1.bn2.weight f4 [9]
00000000: 670b 923f 338c 943f d8e7 723f b113 a03f
00000010: 3cce 9b3f 01d7 9d3f b6a2 8f3f 6de9 563f
00000020: 711a 8d3f
1.140973 1.1605285 0.94885015 1.2506009 1.2172313 1.2331239 1.122153 0.8394993
1.1023694

layer1.1.bn2.bias f4 [9]
00000000: 455b 353e 02d7 24be 2206 7b3e a3f8 593d
00000010: 73eb d73d c21b 873e 852f 693e 4192 08be
00000020: a3e6 113e
0.17710598 -0.16097644 0.24514058 0.053215634 0.10542955 0.26388365 0.22772034 -0.13337041
0.14248137

layer1.1.bn2.running_mean f4 [9]
00000000: 8f5a b23e 28a6 f4bf 34b7 0040 c292 9fbf
00000010: 5edf b83f e45f 1040 9c7f cb3f 70bc 16c0
00000020: 2f7e bb3e
0.34834716 -1.9113207 2.0111818 -1.2466662 1.4443166 2.2558527 1.5898318 -2.3552513
0.36619708

layer1.1.bn2.running_var f4 [9]
00000000: a184 2541 0b46 ce41 725a 8341 d8e3 cc41
00000010: b3fa 5f41 f772 8941 4611 7341 8375 f641
00000020: dd23 2141
10.34488 25.7842 16.419163 25.611252 13.998706 17.181135 15.191717 30.807379
10.071256

layer1.1.conv3.weight f4 [11, 9, 1, 1]
00000000: 0c98 8d3e a29b 543e 99ca 5a3e 6e81 c63e
00000010: 07d4 3c3f 6813 ce3e 55c1 c43e 6942 3a3e
00000020: 2104 a63d 431e 0e3f 6097 eb3e 3fcf 85bd
00000030: 77a4 4c3f 1c34 803d e473 f83d 7f56 023d
00000040: ee7f 533e 771f d33e 85af 2f3f 994e d13e
00000050: 62ee 833e 5bae dd3e c3b6 7f3e 14a8 b73d
00000060: fb24 3f3d c66f 873e 4b04 ef3e 77b3 b63d
00000070: f1e6 d63e 42a4 43be e9fd 3c3e 3f4f b6be
00000080: 7ce9 c2be 5533 c0be 3d63 643e 52d2 643e
00000090: 8839 2fbc 5d09 0cbe 89de 9c3e d4c5 9a3d
000000a0: 8a40 3b3f f8a1 2a3f a6f2 1c3f 661a 26be
000000b0: 2c20 f23d 7118 953e e4d8 563e 402b 003f
000000c0: c600 693e 1179 233f 8acd f93e 8a22 f43e
000000d0: c9aa fb3d 923b 4b3e 8bfd 2a3f e9c9 d73e
000000e0: 412a a03e c2cc bd3e 9140 633e 89b7 723e
000000f0: 6dfd 423e d47f f73d 8b43 163f 8b41 053e
00000100: 15c0 153f 5c0a 2cbe 079b 163f e339 74bd
00000110: 4e42 97be 3ae9 76be 171d ae3e ca06 9c3d
00000120: 5826 b13e d21e 473e bc2b e63d 2524 b83e
00000130: 668e fc3e 4f19 b33e c810 a73e 995d 833e
00000140: 4804 a73e ad6c 8fbe 56a9 9ebe 44ef cbbe
00000150: e7ea 47be 6ca1 dfbe 200b febe 92ab d7be
00000160: 9b62 a3be 06ca 88be 428f 103e 259f adbe
00000170: 8734 0e3f 99b9 5c3e b423 c33e d8fd 1f3f
00000180: 3f32 053f ac12 50be 93db 2fbe
0.27655065 0.20762494 0.21366347 0.38770622 0.7376103 0.4024918 0.3842875 0.18189396
0.08106256 0.55514926 0.46013927 -0.0653367 0.79938453 0.06259939 0.121314794 0.03182077
0.2065427 0.41234943 0.68627197 0.40880278 0.2576781 0.43297085 0.24972062 0.08967605
0.046666127 0.26452464 0.46682963 0.08920949 0.4197307 -0.19105628 0.18456234 -0.35607335
-0.3806876 -0.37539163 0.22303481 0.22345856 -0.010694869 -0.13675447 0.3063853 0.07557264
0.73145354 0.66653395 0.6130775 -0.16221008 0.118225425 0.2912021 0.20981175 0.50065994
0.22754201 0.6385661 0.48789626 0.476826 0.12288434 0.19846943 0.66793126 0.42146233
0.31282237 0.3707028 0.22192599 0.23702826 0.19041987 0.12084928 0.5869681 0.13013284
0.5849622 -0.16800827 0.588303 -0.059625518 -0.29542774 -0.24112406 0.3400657 0.076184824
0.34599566 0.19445351 0.112388104 0.35965076 0.4932739 0.34980246 0.3262999 0.25657347
0.32620454 -0.280126 -0.30988568 -0.39830983 -0.19523202 -0.43677843 -0.49617863 -0.42123085
-0.31911168 -0.26716632 0.14117149 -0.3391048 0.555489 0.21555175 0.38113177 0.6249671
0.52029794 -0.20319623 -0.17173605

layer1.1.bn3.weight f4 [11]
00000000: e6b3 623f 27da 3e3f 09d2 3f3f f2aa 3a3f
00000010: b33d 843f 6262 833f cda4 543f 9234 613f
00000020: 9351 123f c340 d23e a14c 5f3f
0.88555753 0.74551624 0.74929863 0.7291709 1.0331329 1.0264399 0.83063966 0.8797084
0.5715572 0.41065034 0.872263

layer1.1.bn3.bias f4 [11]
00000000: e955 043e 10a7 bf3d 981f 913c c14f 94be
00000010: e63b 7b3e e3de 863d c82c 49bd fa3c 26bd
00000020: 0764 bf3b 2400 8dbe a3c6 0a3e
0.12923397 0.093580365 0.01771526 -0.28967097 0.24534568 0.06585481 -0.049114972 -0.040585496
0.0058407816 -0.2753917 0.13552336

layer1.1.bn3.running_mean f4 [11]
00000000: ef10 a23f 44a9 8c3f 467b 9c3f 9ec1 4abe
00000010: ef96 8b3f d5dd b33f 849d ae3f 3a74 8c3e
00000020: 62c9 993f 5338 abbf ab0c 6a3f
1.2661418 1.0989156 1.222512 -0.19800422 1.0905436 1.4052073 1.364182 0.27432424
1.2014582 -1.3376564 0.9142558

layer1.1.bn3.running_var f4 [11]
00000000: 9688 5040 a2b1 a43f c17b e73f 9a09 b93f
00000010: ab34 9f40 ddfa 9140 19f5 2540 0996 673f
00000020: e894 1e40 b0e9 5d40 96e9 7b40
3.2583365 1.2866709 1.8084642 1.4456055 4.975179 4.561873 2.5930846 0.9046331
2.4778385 3.4673882 3.936132

layer1.2.conv1.weight f4 [9, 11, 1, 1]
00000000: 99d0 ec3e caa1 ca3e 9e03 183e cbac b63e
00000010: 17e4 823e 6310 ba3e 226f ac3e f0f6 bcbd
00000020: a5d1 093f 086b b43e 5d94 f63e 0c69 023f
00000030: 7976 8c3e e116 5f3e 9b41 1b3e ea5d c63e
00000040: 6332 113f 7d2a 9d3e b2d7 aa3d ef1a f13e
00000050: 9a31 d03e 3c1b 033f 1dc4 b9be dd57 d2be
00000060: 8aad eebe ea80 96be 84d3 edbe 21f4 6abe
00000070: 1877 15be 96e5 15be 62d9 0abe b562 67bc
00000080: 3d81 1fbe 73ed bdbe aa3c ebbe 06af 0fbf
00000090: 6f5e cdbe 6316 9fbd d145 cfbe 1157 87be
000000a0: 52db b8be 6567 2ebd 567b d3be 63f6 29bd
000000b0: 3cd1 04bf b23f c3bd 94f2 99be ec7f 96bc
000000c0: fbda 4fbe c705 613d 33e0 0fbe 70d6 91be
000000d0: 8214 083c bf1c 8d3d 5ead efbc 0423 63be
000000e0: 1c04 b1be 774f 83be ab45 05be 452c e2be
000000f0: 7022 1fbe e46f 46be 3076 1abe f6f3 80be
00000100: 8d8b 3a3e 55db 92bc 7988 df3d b34d 12be
00000110: c9c9 47be a293 60bd 3376 d13e bf33 543b
00000120: 2318 923e 022b 0cbe 4906 f7bd 205e 0abe
00000130: ca0d 183e 3e3b 533e 0fd0 b2bd ff9a 8b3c
00000140: 5170 413e 73c1 9c3e 2a37 a93c 5292 013f
00000150: b5d6 ebbe 5f03 b63d 2548 9c3d 50a6 313e
00000160: b325 0c3f 5182 bd3e 9f3f 913e f136 893e
00000170: 5ac0 eb3e 40b2 0d3f d373 e83e 5c61 293e
00000180: 2f1d fe3e cee3 943e 26eb 093f
0.46252897 0.3957656 0.1484513 0.35678706 0.25564644 0.36340627 0.33678538 -0.09226787
0.5383552 0.35237908 0.48160067 0.5094154 0.27434137 0.21786071 0.15161745 0.38743526
0.5671751 0.30696478 0.08341922 0.4709086 0.40662843 0.5121343 -0.36282435 -0.4108266
-0.46616775 -0.2939523 -0.46450436 -0.2294469 -0.14596212 -0.14638361 -0.13559487 -0.014122655
-0.15576644 -0.37095222 -0.4594472 -0.5612644 -0.4011111 -0.07767942 -0.40482953 -0.26433614
-0.36104828 -0.042579073 -0.41305035 -0.04149474 -0.51881766 -0.09533633 -0.30067885 -0.018371545
-0.20298378 0.05493715 -0.14050369 -0.28483915 0.008305671 0.068902485 -0.029257473 -0.22181326
-0.34573448 -0.25646564 -0.13014857 -0.441744 -0.1554048 -0.1937862 -0.15084147 -0.25186127
0.18217297 -0.017926851 0.10914702 -0.14287452 -0.19510569 -0.054828294 0.4091049 0.0032379476
0.2853404 -0.13688281 -0.12061746 -0.13512468 0.1484901 0.20628068 -0.0873109 0.017041681
0.18890502 0.3061634 0.020656187 0.5061389 -0.46062246 0.08887362 0.07630948 0.173486
0.54745024 0.37013486 0.28368852 0.2679973 0.4604519 0.5535011 0.45400867 0.16541046
0.4963164 0.2908005 0.53874433

layer1.2.bn1.weight f4 [9]
00000000: 6ccc 893f 60af 773f 31be 413f 4e69 2b3f
00000010: 08f8 883f 2c59 823f 675c 6b3f a23f 633f
00000020: 7264 853f
1.076551 0.96751976 0.75680834 0.6695756 1.0700693 1.0183463 0.9193787 0.8876897
1.0421278

layer1.2.bn1.bias f4 [9]
00000000: 927b 383e fb8a b93e 4857 0ebd 7384 a3bd
00000010: 4388 033e 6241 f43d 4e26 e33d 72a7 053e
00000020: 52a6 bd3e
0.18015888 0.36238846 -0.034751207 -0.07984247 0.12844948 0.11926533 0.110912904 0.13052157
0.37040955

layer1.2.bn1.running_mean f4 [9]
00000000: 69a0 4040 5fdc 5c40 5061 1dc0 01b4 1fc0
00000010: 3cf2 b6bf 5c6d febf fa33 033f c973 603f
00000020: 6b88 7c40
3.0097907 3.4509504 -2.4590645 -2.4953616 -1.4292674 -1.9877124 0.51251185 0.87676674
3.9458263

layer1.2.bn1.running_var f4 [9]
00000000: 8876 0841 e685 2941 187d a440 a378 5640
00000010: d825 e53f 3aac 5940 4bdf 0c40 69d0 7240
00000020: 24bd 5c41
8.528938 10.59519 5.14027 3.351113 1.7902174 3.4011369 2.2011287 3.7939703
13.796177

layer1.2.conv2.weight f4 [9, 9, 3, 3]
00000000: 0354 0c3f 1cb2 893e 9ce6 3fbe 3d71 853e
00000010: 49f8 ec3d 15e6 18be 46cb 65be d455 57be
00000020: 7113 0ebe 7d70 063f 5c84 8f3e b36e 1ebe
00000030: 720e 9c3e a02d 343e 2315 d3bd 6392 cfbd
00000040: f915 40be 48d5 3dbe 4965 0ebf 2ee7 6ebe
00000050: 3ad6 56be 2772 b6be ff58 4ebe 448f acbe
00000060: 6352 21bd 328e dbbc 2b6a 97be 6702 31bf
00000070: 3f5b 8abe e77c 31be 947c e5be c5ce 38be
00000080: 8a24 57be 73c9 66be c9cb 9f3c c0fa e2bd
00000090: b89b 91be 3e00 a9be 4b68 3bbe db5a a33d
000000a0: 22a3 433c 5327 fabd a0cf 743e e85d b23d
000000b0: 547e 88ba c3fc 2cbf e19f bebe 25c3 0ebe
000000c0: bd1c e7be 5254 86be dfd4 b3be 296a 4dbe
000000d0: 66e5 4abe e7e2 d5be 4e2d 0dbe f88d ce3d
000000e0: cab9 03be c385 eabd 4326 ed3d 513e 87bd
000000f0: f6a6 bdbe 4e27 dabb 6574 c13d 286c 593e
00000100: ae44 453e ca0e 50be 4cae 5dbd 4a0d 813d
00000110: 756c 7fbe 00d0 eabe 9827 88be dadb f2bd
00000120: fe71 133f e60c 833e 88fa edbd bd6e a33e
00000130: 1df6 173e 5629 dbbd 48cc 20be 70f0 6abe
00000140: 9cb0 2bbe 7640 953d 5215 d3bd 1260 203d
00000150: f1ca 94bd 3136 79be a9b5 ebbd 51b4 093f
00000160: 878a 483e bd1a 0a3e 7460 e93d 01de 05be
00000170: f35d 313d 568c 003e 4601 64be 57af dabd
00000180: f8aa 3e3f 1afb 553e 84e0 3d3e c70c e53d
00000190: 8a5e f2bd 6a2b 633d 7405 ddbd a9d7 d8bc
000001a0: 9a9a 9abb 14ae 1ebf 378d a8be 8870 21be
000001b0: 88a6 203e 7de3 113e c8c8 813e 15e0 c0bd
000001c0: 3b27 223e e402 503e 558b 23bf 6232 89be
000001d0: afac cfbd 9f8c 4dbe 7601 89bc c95b 063e
000001e0: bafe 35be 6f7f e13d c244 323e 8192 0bbf
000001f0: 1418 a3be eb5d 09be 6036 003e b728 b5bd
00000200: bb57 a73d 4c6f febd f83d 01be d9ea 1dbd
00000210: 3daf 66bf 7325 05bf 889e 7ebe 09fa 7f3d
00000220: a512 2bbe 6fbf 353e 535f 3c3d 5575 98be
00000230: d040 8c3c ee8e f83e 1245 b53d 3094 343e
00000240: 0297 603e 3c50 273b f0d0 013d f998 073e
00000250: dedc 6ebe 5f61 afbd 02fa 2a3f 097a 633e
00000260: f179 1c3e 4922 153e 86c8 11be 7e69 d83d
00000270: 9dab 1ebd c14b afbe 26d9 a1bd c673 273f
00000280: 4926 673e 22a9 7a3e d479 3c3e 5a52 2ebe
00000290: ec44 dfbd fc6f ecbc 30be d6be 4906 d5be
000002a0: 89e3 1f3f 7bc3 fb3c 128d 22be 562f d93d
000002b0: d587 5fbe 063f bfbd 1e54 153d ca21 99be
000002c0: 1aef e3be c84b 283f 695e da3c d7d3 b2bd
000002d0: e022 133e 0f98 84bd 65d1 943d b99b 4f3e
000002e0: 563e 933e 282a 003e f90a 91be 7e6a 6dbd
000002f0: 0345 56be 4e1c 193e e7e0 093d 8d37 833e
00000300: c0ed 8c3e 7635 f73e 22c7 9c3e f178 15be
00000310: 475d 783d a1a3 eabc 577c 92bc c775 19be
00000320: bba2 8b3d 9ec8 de3b ad5a 9d3d 14b2 a23e
00000330: fece 52be 8649 a4be a697 393d a6fb 653e
00000340: ba43 613d f021 983e 9119 893d 28f6 063e
00000350: 0617 8a3d 4272 f3be 7ad1 cebe 6bd6 91be
00000360: b78c 443d 48bd 03bd 5eb4 a93e 3468 af3d
00000370: 55b0 0dbe b9ea 443b e0ea 5d3e 1d8d 2e3c
00000380: 66f7 033e 0d1f 013e c1b8 8a3c f4a4 923d
00000390: 9b4f c9bd a0da d0be 89cc 5cbe 1a24 cd3e
000003a0: b361 3ebd 8129 d83c e3c4 4d3e 4ba3 06be
000003b0: cc42 21be d52b 8bbb 733d 94be b301 e8be
000003c0: 44a4 1d3f 045c 293d 1d4e 3fbd 8946 013f
000003d0: ae94 793e 334f 77be 2662 b23e 8381 8d3d
000003e0: d633 3cbe 4607 e23c 2cbd 1bbe 0c3a 88be
000003f0: 281c 113f e591 643e cd0e 0fbe 8964 f23e
0.5481569 0.268937 -0.18740314 0.26062956 0.11570794 -0.1493152 -0.22440824 -0.21028835
-0.13874604 0.52515393 0.2803067 -0.15471916 0.3047977 0.1759553 -0.10306766 -0.10135343
-0.18758382 -0.18538392 -0.556233 -0.23330376 -0.20980158 -0.35633966 -0.20151137 -0.33703053
-0.03938521 -0.026801202 -0.29573187 -0.6914429 -0.2702274 -0.17332803 -0.44821608 -0.18047626
-0.21010032 -0.22537784 0.019506352 -0.11082983 -0.28439116 -0.33007997 -0.18301503 0.07976314
0.011940749 -0.12214532 0.23907328 0.087093174 -0.0010413625 -0.67573184 -0.37231353 -0.13941629
-0.45139113 -0.26236206 -0.35123345 -0.20060028 -0.19814071 -0.41774675 -0.13786814 0.10085672
-0.12863842 -0.11451294 0.115795635 -0.06603683 -0.37041444 -0.0066575175 0.094460286 0.21232665
0.1926448 -0.20318142 -0.0541213 0.06301363 -0.24943717 -0.45861816 -0.26592708 -0.118583396
0.57595813 0.25595778 -0.11620051 0.31920424 0.14839979 -0.107012436 -0.15702927 -0.22943282
-0.1676659 0.072876856 -0.10306801 0.03915412 -0.072652705 -0.24337079 -0.11509258 0.53790766
0.19584094 0.13486762 0.1139535 -0.13072969 0.043302488 0.12553534 -0.22266111 -0.10677975
0.7447963 0.20896569 0.18542677 0.11184078 -0.11834438 0.055461325 -0.10792056 -0.026470022
-0.004718137 -0.6198437 -0.32920238 -0.15765584 0.15688527 0.14246936 0.25348496 -0.0941774
0.15835278 0.20313603 -0.6388448 -0.26796252 -0.10140359 -0.20073174 -0.01672433 0.13120951
-0.17772952 0.11010634 0.17409042 -0.5452042 -0.31854308 -0.13414733 0.12520742 -0.08845656
0.0817103 -0.12423572 -0.12621295 -0.038554046 -0.9011114 -0.5201027 -0.24865162 0.06249431
-0.16706331 0.17748807 0.045989346 -0.29777017 0.017120749 0.48546547 0.08851065 0.17634654
0.21932605 0.002553 0.0316934 0.13241948 -0.23326442 -0.08563494 0.6678773 0.22214521
0.15280892 0.1456386 -0.1423665 0.10566996 -0.038737882 -0.34237483 -0.07902746 0.6541103
0.22573198 0.24478582 0.18405849 -0.17023602 -0.10901818 -0.028861992 -0.41941977 -0.41606358
0.62456566 0.03073286 -0.15874127 0.10604732 -0.2182916 -0.09338193 0.036457174 -0.29908592
-0.44518358 0.65740633 0.026656346 -0.087318115 0.14368773 -0.064743154 0.07266501 0.20274247
0.28758496 0.12516081 -0.28328684 -0.057962887 -0.20924763 0.14952204 0.03366175 0.2562832
0.2752514 0.48282975 0.30620676 -0.14596917 0.06063583 -0.028642477 -0.017881555 -0.14986335
0.06818148 0.006798818 0.07683311 0.31776488 -0.20586774 -0.32087344 0.04531064 0.22459278
0.05499623 0.29713392 0.066943295 0.13179839 0.067426726 -0.4754811 -0.40394193 -0.284839
0.04798576 -0.032162935 0.33145422 0.08564797 -0.13836797 0.0030047132 0.21671629 0.010653761
0.12887344 0.12609501 0.0169338 0.071603686 -0.09829637 -0.40791798 -0.21562399 0.40066606
-0.046479892 0.026386978 0.20094638 -0.13148229 -0.15748137 -0.0042471685 -0.28953132 -0.45313796
0.61578774 0.04134752 -0.046705354 0.50498253 0.24373123 -0.24151306 0.34840506 0.06909468
-0.18379149 0.027591359 -0.15208882 -0.26606786 0.5668359 0.2232128 -0.1397049 0.47342327

layer1.2.bn2.weight f4 [9]
00000000: 3ad1 4c3f 7da4 883f 93e7 ac3f 346d 523f
00000010: c343 b63f 5456 3f3f 5433 5c3f 6d43 893f
00000020: 7c0d 673f
0.80006754 1.0675198 1.3508171 0.8219788 1.4239429 0.747411 0.8601582 1.0723702
0.9025495

layer1.2.bn2.bias f4 [9]
00000000: 540a 023f 96b7 5b3e 0d44 a63d abdb fe3e
00000010: 5233 bdbd cde7 76be 1c8f d3bd 05ea 6bbd
00000020: 8a20 5a3e
0.5079701 0.21456751 0.081184484 0.49776968 -0.09238304 -0.24111862 -0.1033003 -0.057596225
0.21301475

layer1.2.bn2.running_mean f4 [9]
00000000: 00c3 09c0 a154 423d aed9 96be 6a03 9bbf
00000010: f388 483f f06a c5bf 0bd9 943f 8b9e 2f40
00000020: f98b 28bf
-2.1525269 0.04744399 -0.2946295 -1.2110417 0.7833397 -1.542326 1.1628736 2.7440517
-0.6583858

layer1.2.bn2.running_var f4 [9]
00000000: a5ae 0d41 b7d5 6641 04f7 0741 b0ed 7c41
00000010: cea4 b740 de91 da41 3911 4e41 16b8 a641
00000020: 70b1 0041
8.855138 14.427176 8.497807 15.808029 5.7388678 27.321224 12.879205 20.839886
8.04332

layer1.2.conv3.weight f4 [11, 9, 1, 1]
00000000: 29ca 28bf e9ef 1fbd f5fb bcbe 3cd8 3abf
00000010: d0b6 60bc 934f 823e 22d4 24be 1b55 83be
00000020: 2108 5dbe b34e 50be cd88 003f 0a4c 213f
00000030: 3e61 343e 5bb8 613e 2134 d1bd 32ea a33d
00000040: fcdc 923e c382 d33e 2453 11bf 7dd2 243e
00000050: 0940 e2bd 1297 62bf 40d9 a0bd 95fa fabb
00000060: c58c 32be 352d f4be 4cdf efbe 3b21 25bf
00000070: 35cd b43e e0e5 423e 8ac6 babd f889 0cbf
00000080: fb81 2bbe f5f8 1bbd 595d 45be 3d28 303e
00000090: 61cf a2be f844 573e e1e8 9bbc 6a1c b3be
000000a0: 5e7c 13bf ad89 08bd beb1 d1bd 4f2a 0cbf
000000b0: 484b bc3b 3d02 c4be 0011 debc a396 2fbe
000000c0: d1f9 44bf bdb8 b2bd 6159 20bc cd5b 18bf
000000d0: 4f22 18bf e29e 04be e46b efbd 6c9e f53e
000000e0: 9899 4b3f 397e 613e cb0d 01bc 08e9 d4bd
000000f0: 2cdb 9abc e305 683d f218 c33e 528d 963d
00000100: e5a2 9b3e c0e0 3e3e 14ae 613e 154a 0d3f
00000110: 0f2f 043e b2c4 03be bfee ad3d e1af a03e
00000120: 5689 15be 116e 453f 64f5 b93e 2061 fdba
00000130: ac80 af3d a048 803e 2981 a53e 641d 9e3e
00000140: 9249 023e b8b0 86be 0d03 90be 7c4f 64be
00000150: a6e9 e1be 4a10 98be 2ee2 7b3e 0b04 00bf
00000160: de3a 8fbe fd77 0dbf 42fc 8cbe 1d5c 95be
00000170: c798 f6bd 32a4 d0be f666 c83d b778 633e
00000180: 1c07 1bbf 1a66 2ebf 9b1b 9ebe
-0.6593347 -0.039047156 -0.36910978 -0.729862 -0.013715461 0.25451335 -0.16096547 -0.25650868
-0.21585132 -0.20342521 0.5020874 0.6300665 0.1761522 0.22042982 -0.10215021 0.080036536
0.28684223 0.413107 -0.5676749 0.1609592 -0.1104737 -0.88511765 -0.07853937 -0.0076592662
-0.17436512 -0.4769074 -0.4685005 -0.6450383 0.3531281 0.19033003 -0.091198996 -0.54898024
-0.16748802 -0.03807922 -0.1927389 0.1720285 -0.31798843 0.21022403 -0.019031944 -0.34982616
-0.57611644 -0.033334423 -0.1023898 -0.5475206 0.005746279 -0.38282958 -0.027107716 -0.17147307
-0.7694369 -0.08726642 -0.009786935 -0.59515077 -0.5942735 -0.12951234 -0.116905004 0.4797243
0.7953124 0.22020806 -0.007876824 -0.1039601 -0.018903337 0.05664624 0.3810497 0.073511735
0.30397716 0.18640423 0.22039062 0.55191165 0.12908576 -0.12868002 0.08492803 0.31384185
-0.14603171 0.77121073 0.3632003 -0.0019331314 0.08569464 0.25055408 0.32325104 0.30881798
0.12723377 -0.263067 -0.28127328 -0.22295946 -0.44123572 -0.29699928 0.24598 -0.5000617
-0.279746 -0.5526121 -0.27536207 -0.2917184 -0.12040859 -0.4075027 0.09785263 0.22214018
-0.60557723 -0.68124545 -0.30880436
